…
TORCHINFO MODEL SUMMARY  (MACs and parameter sizes per layer)
======================================================================
============================================================================================================================================
Layer (type:depth-idx)                   Input Shape               Output Shape              Param #                   Mult-Adds
============================================================================================================================================
BNNClassifier                            [1, 3, 224, 224]          [1, 2]                    --                        --
├─BinarizeConv2d: 1-1                    [1, 3, 224, 224]          [1, 32, 224, 224]         864                       43,352,064
├─BatchNorm2d: 1-2                       [1, 32, 224, 224]         [1, 32, 224, 224]         64                        64
├─BinarizeConv2d: 1-3                    [1, 32, 224, 224]         [1, 64, 112, 112]         18,432                    231,211,008
├─BatchNorm2d: 1-4                       [1, 64, 112, 112]         [1, 64, 112, 112]         128                       128
├─BinarizeConv2d: 1-5                    [1, 64, 112, 112]         [1, 128, 56, 56]          73,728                    231,211,008
├─BatchNorm2d: 1-6                       [1, 128, 56, 56]          [1, 128, 56, 56]          256                       256
├─AdaptiveAvgPool2d: 1-7                 [1, 128, 56, 56]          [1, 128, 1, 1]            --                        --
├─Linear: 1-8                            [1, 128]                  [1, 2]                    258                       258
============================================================================================================================================
Total params: 93,730
Trainable params: 93,730
Non-trainable params: 0
Total mult-adds (Units.MEGABYTES): 505.77
============================================================================================================================================
…
